data/ADL_DCASE_DATA/development/audio/b091_152_182.npy (npy, 360368 bytes, 1 tensors)

array (column-major) f4 [60, 1501]
2.8696218 2.2304516 -0.20905945 0.26608136 0.77173173 1.5043416 -1.1254289 2.178102
1.4157897 1.4493239 1.2952002 -0.8366453 0.4993536 1.7664404 2.8939562 4.0593195
5.1886926 3.2619596 3.0780408 4.5802903 3.771514 4.47667 3.5902476 4.095842
4.407804 3.5070796 1.8340431 3.0551014 0.16980943 0.33641407 1.3308872 -0.74279445
0.009208938 -0.018865045 0.52936465 1.5201335 0.66003877 1.075799 0.29000366 0.5018866
-0.26746002 -0.9125692 -2.4110641 -4.7081075 -4.7563214 -5.2176795 -4.256652 -3.7420287
-4.5820417 -5.753598 -6.3964696 -7.2197485 -8.067685 -8.804464 -7.6986957 -7.2112226
-8.54166 -9.684708 -10.405835 -12.09369 2.6903183 0.5825193 1.5309649 1.8189515
2.3454564 3.3387678 1.530545 0.0123626515 0.0175761 -0.51480746 1.1208632 -1.6189187
1.6468471 2.6991491 2.640488 4.1304255 4.4157486 2.973845 2.7875671 3.1183171
3.9047859 5.025378 3.210845 4.541973 3.2624707 3.1249988 1.1682315 1.2681134
0.71637625 1.0806707 0.4569091 0.15612413 0.57066107 0.53927124 1.1486226 0.6328123
-0.035909392 0.0066477843 0.3158461 0.41433814 -0.43110844 -0.8639536 -2.6101115 -4.453575
-4.223266 -4.1545672 -4.186096 -3.0257657 -3.7298238 -5.3888173 -6.8325276 -7.6053877
-7.7833548 -7.751683 -7.4306574 -7.1154723 -7.811433 -8.182442 -8.916545 -11.350442
1.8957149 3.9045246 3.239936 3.6999266 3.7709794 3.0860505 3.6683705 3.8903046
2.5393953 2.0114088 2.4300852 0.70356315 -0.26409677 0.9310883 1.5623703 1.8468435
4.233792 3.1057007 2.5563962 4.743019 4.016144 2.617348 2.532143 3.5723546
3.7142627 2.2838786 2.1610785 1.7255161 1.1583589 0.25853628 0.24190404 1.1743839
0.7831845 1.3146577 1.5798912 1.6347841 1.8152364 1.778104 1.789996 0.7318923
-0.3357565 -0.5571514 -2.0915117 -3.870895 -4.106499 -4.2807026 -3.9800878 -3.2742765
-3.600504 -4.6759133 -6.256939 -7.1314206 -7.6458125 -7.59229 -7.0214033 -6.929559
-7.351657 -7.1163907 -8.278439 -10.172116 0.6853744 1.3679268 1.5398868 0.9939214
2.1345162 2.7887883 3.8413785 1.6678003 2.6699681 2.515768 1.6853651 1.7348176
1.7538313 2.2726176 3.5091164 2.1190753 2.848781 3.812335 4.8282266 4.7173285
3.3534184 3.12493 3.36274 3.543627 3.2804406 3.0693328 2.7613087 1.574192
1.2022506 0.703131 -0.19674438 1.6287138 1.8730279 1.8006234 1.2441993 1.164582
1.7974278 1.4062154 0.9053406 0.60764456 0.2934384 0.041489046 -1.8847361 -3.7398179
-4.091171 -4.235046 -3.917072 -3.1590736 -3.7174063 -4.739499 -6.490486 -6.9504223
-7.917959 -8.657611 -7.7989707 -6.953558 -7.098619 -7.7547917 -8.805601 -11.481249
3.6227453 3.1194134 1.6215352 2.75352 2.7591412 3.7392802 2.8540158 -0.6820277
1.0291613 2.4963167 1.4646167 1.4121898 1.1535008 1.5880705 3.3337586 3.6430016
00000000: e2a7 3740 b8bf 0e40 ae13 56be d13b 883e
00000010: 3690 453f 448e c03f 0e0e 90bf 0666 0b40
00000020: 9938 b53f 7283 b93f 1fc9 a53f 632e 56bf
00000030: 46ab ff3e b81a e23f 9436 3940 f2e5 8140
00000040: c509 a640 f2c3 5040 9ffe 4440 bd91 9240
00000050: 7c60 7140 e140 8f40 9ec6 6540 2311 8340
00000060: bb0c 8d40 fe73 6040 edc1 ea3f c886 4340
00000070: 86e2 2d3e 773e ac3e 835a aa3f c727 3ebf
00000080: 16e1 163c de8a 9abc 7184 073f bc93 c23f
00000090: 4df8 283f c8b3 893f 5c7b 943e a47b 003f
000000a0: 85f0 88be 239e 69bf e04e 1ac0 d1a8 96c0
000000b0: c933 98c0 3bf7 a6c0 7e36 88c0 667d 6fc0
000000c0: 16a0 92c0 7a1d b8c0 e1af ccc0 2e08 e7c0
000000d0: 3d15 01c1 16df 0cc1 b75b f6c0 56c2 e6c0
000000e0: a4aa 08c1 90f4 1ac1 4d7e 26c1 c17f 41c1
000000f0: 2d2e 2c40 fc1f 153f a8f6 c33f 67d3 e83f
00000100: f51b 1640 5fae 5540 e6e8 c33f b88c 4a3c
00000110: c1fb 8f3c 6cca 03bf 7278 8f3f ba38 cfbf
00000120: e3cb d23f dcbe 2c40 c1fd 2840 722c 8440
00000130: d04d 8d40 7a53 3e40 8067 3240 8292 4740
00000140: 03e8 7940 e6cf a040 7c7e 4d40 d857 9140
00000150: 52cc 5040 fbff 4740 9c88 953f 8a51 a23f
00000160: 6f64 373f 6b53 8a3f fdef e93e 01df 1f3e
00000170: d816 123f ae0d 0a3f 1106 933f fdff 213f
00000180: ba15 13bd a8d5 d93b 94b6 a13e 2124 d43e
00000190: 3fba dcbe 102c 5dbf 110c 27c0 b083 8ec0
000001a0: ff24 87c0 37f2 84c0 80f4 85c0 25a6 41c0
000001b0: 6fb5 6ec0 3171 acc0 11a4 dac0 565f f3c0
000001c0: 3e11 f9c0 ca0d f8c0 f2c7 edc0 f3b1 e3c0
000001d0: 42f7 f9c0 48eb 02c1 2baa 0ec1 699b 35c1
000001e0: c9a6 f23f bbe3 7940 1d5b 4f40 99cb 6c40
000001f0: ba57 7140 da81 4540 95c6 6a40 c0fa 7840
00000200: 7485 2240 ecba 0040 8486 1b40 b71c 343f
00000210: b137 87be ce5b 6e3f c0fb c73f 5e65 ec3f
00000220: 397b 8740 cdc3 4640 ff9b 2340 d0c6 9740
00000230: 4084 8040 a182 2740 a20e 2240 75a1 6440
00000240: 7bb6 6d40 112b 1240 1c4f 0a40 b6dd dc3f
00000250: 1b45 943f de5e 843e b1b5 773e 3652 963f
00000260: c87e 483f b446 a83f e039 ca3f 9b40 d13f
00000270: ab59 e83f e998 e33f 971e e53f 4b5d 3b3f
00000280: 47e8 abbe 79a1 0ebf 54db 05c0 bebc 77c0
00000290: 7168 83c0 84fb 88c0 c2b9 7ec0 bf8d 51c0
000002a0: a86e 66c0 15a1 95c0 d838 c8c0 9934 e4c0
000002b0: 7faa f4c0 0af4 f2c0 56af e0c0 f3be ddc0
000002c0: c640 ebc0 79b9 e3c0 7c74 04c1 fdc0 22c1
000002d0: b274 2f3f 3a18 af3f 031b c53f a271 7e3f
000002e0: ea9b 0840 827b 3240 25d9 7540 7b7a d53f
000002f0: c2e0 2a40 5802 2140 0bba d73f 810e de3f
00000300: 8b7d e03f 9172 1140 5d95 6040 ee9e 0740
00000310: 6e52 3640 4cfd 7340 d580 9a40 5bf4 9640
00000320: 689e 5640 dafe 4740 2237 5740 c9ca 6240
00000330: bdf2 5140 f36f 4440 48b9 3040 207f c93f
00000340: 59e3 993f 6500 343f 5c77 49be b279 d03f
00000350: 61bf ef3f d47a e63f ec41 9f3f 0611 953f
00000360: 1d12 e63f defe b33f 67c4 673f 988e 1b3f
00000370: 8f3d 963e 6bf0 293d 083f f1bf 2d59 6fc0
00000380: dfea 82c0 7f85 87c0 4fb1 7ac0 432e 4ac0
00000390: fce9 6dc0 faa9 97c0 10b2 cfc0 dc69 dec0
000003a0: ec5f fdc0 9385 0ac1 2b91 f9c0 8c83 dec0
000003b0: e327 e3c0 4127 f8c0 bee3 0cc1 32b3 37c1
000003c0: 0fdb 6740 78a4 4740 778e cf3f ac39 3040
000003d0: c595 3040 5e50 6f40 32a8 3640 5e99 2ebf
000003e0: 8fbb 833f a7c3 1f40 8f78 bb3f a3c2 b43f
000003f0: eaa5 933f e545 cb3f 4d5c 5540 f026 6940
