data/ADL_DCASE_DATA/development/audio/b094_0_30.npy (npy, 360368 bytes, 1 tensors)

array (column-major) f4 [60, 1501]
0	0x40be56df	5.9481044
1	0x40a2b511	5.084603
2	0x40999846	4.799838
3	0x402c1745	2.6889203
4	0x3f03c473	0.5147163
5	0xbfd71ac2	-1.6805041
6	0xc0034c8c	-2.051547
7	0xbfeab983	-1.8337864
8	0x3f9cd347	1.2251977
9	0x40001279	2.0011275
10	0x3f21828f	0.6308984
11	0xbedea3fe	-0.4348449
12	0xbee3893b	-0.44440636
13	0xbf90291f	-1.1262549
14	0x3fabafaf	1.3412989
15	0x400689ad	2.102153
16	0x3ff771b6	1.9331577
17	0x407ed07f	3.9814756
18	0x402907dc	2.6411047
19	0xbe7e0307	-0.24805842
20	0xbdae7544	-0.085184604
21	0x3f1bdb15	0.6088117
22	0x3f57efdf	0.8435039
23	0x40260c15	2.5944874
24	0x3fc03bbc	1.501823
25	0x3fc75ef0	1.5575848
26	0x3fb7e26c	1.4365973
27	0x3d0e84f5	0.034794766
28	0xc043b4b3	-3.057904
29	0xc0835725	-4.1043878
30	0xc0715b50	-3.7711983
31	0xc0429230	-3.0401726
32	0xbfc25e3e	-1.518501
33	0xc04e4614	-3.2230272
34	0xc0672da0	-3.6121597
35	0xc00f8484	-2.242463
36	0xc02f8017	-2.742193
37	0xc0391aaa	-2.8922524
38	0xc03df432	-2.9680295
39	0xc02fb2b6	-2.7452826
40	0xc0456c7f	-3.084747
41	0xc0a76eee	-5.232291
42	0xc0f4b8e4	-7.6475697
43	0xc11742d9	-9.45382
44	0xc1104da4	-9.018955
45	0xc1129bc3	-9.163028
46	0xc10403a6	-8.250891
47	0xc0e82394	-7.254343
48	0xc0d3afbc	-6.615202
49	0xc10dbc48	-8.858467
50	0xc12d2401	-10.82129
51	0xc124cadb	-10.299525
52	0xc125a24a	-10.352121
53	0xc13b9ba8	-11.725502
54	0xc1402566	-12.0091305
55	0xc132c1f8	-11.172356
56	0xc143cb45	-12.237126
57	0xc144ce61	-12.300385
58	0xc155fcfa	-13.374262
59	0xc16683f8	-14.407219
60	0x40c1de39	6.058377
61	0x40899e15	4.300547
62	0x40094ddb	2.145377
63	0x405f7ab5	3.4918644
64	0x40059470	2.087185
65	0x3f0a3171	0.5398169
66	0xbe576f57	-0.21038567
67	0x3f27ea34	0.6559174
68	0x3f64531c	0.89189315
69	0xbe465680	-0.19368935
70	0x3f0d2670	0.55136776
71	0x3fe3ab29	1.7786609
72	0x400abc97	2.1677606
73	0x3deea8a4	0.116532594
74	0x3fcfa35e	1.6221731
75	0x3f9bc3a2	1.2169077
76	0x3fea27a1	1.8293344
77	0x3fe9b38a	1.8257916
78	0x3edc429a	0.43019563
79	0xbe3a78db	-0.18210165
80	0xbed24aff	-0.41072842
81	0x3c78e9d9	0.015192472
82	0x3ec11284	0.3770944
83	0x3fc9c5bb	1.5763468
84	0x402d5f92	2.7089581
85	0x3fab8648	1.3400354
86	0x3db66fe3	0.089080594
87	0xbf5d38ad	-0.86414605
88	0xc018c07d	-2.3867486
89	0xc046f419	-3.1086485
90	0xc01cb331	-2.448437
91	0xc022980e	-2.5405307
92	0xc02d351d	-2.7063668
93	0xc0364cc5	-2.8484356
94	0xc043891c	-3.0552435
95	0xc03276e0	-2.7885056
96	0xc044881e	-3.070808
97	0xc07ad384	-3.91916
98	0xc05cb8f6	-3.4487891
99	0xc061fc34	-3.5310183
100	0xc087dfcf	-4.2460704
101	0xc0aa606f	-5.3242717
102	0xc0f5ed24	-7.685198
103	0xc1122a93	-9.135394
104	0xc11a339e	-9.637602
105	0xc113f61a	-9.247583
106	0xc10034dc	-8.012905
107	0xc0e85362	-7.2601786
108	0xc0f2705b	-7.5762153
109	0xc111078a	-9.064341
110	0xc12ec102	-10.922121
111	0xc12b574e	-10.708815
112	0xc1308d05	-11.034429
113	0xc136989e	-11.41226
114	0xc12eb7fc	-10.919918
115	0xc128fda6	-10.561926
116	0xc132318a	-11.1370945
117	0xc1393901	-11.576417
118	0xc13c7d49	-11.780587
119	0xc14a4228	-12.641151
120	0x4108be1e	8.546415
121	0x40d5f1a1	6.6857457
122	0x3fa43c0e	1.2830827
123	0x403260b5	2.7871525
124	0x400d76d7	2.2103784
125	0x3f19e4b4	0.601146
126	0x3fff3016	1.993655
127	0x3fe25c61	1.7684442
128	0xbf165013	-0.58715934
129	0x3fe52a94	1.7903619
130	0x3fa76a0d	1.3079239
131	0x402b8a68	2.6803226
132	0x401ed8ef	2.4819906
133	0x402529c2	2.5806737
134	0x3fffe9e4	1.9993253
135	0x40528829	3.2895606
136	0x3fc90d86	1.5707252
137	0x3fe79833	1.8093323
138	0x4017900d	2.3681672
139	0x4022cb62	2.5436635
140	0x3fd159b3	1.6355499
141	0x3db6e99b	0.089312755
142	0x3f061237	0.52371544
143	0x3fa9934a	1.3248074
144	0x3f63065c	0.8868158
145	0x3fd26ad0	1.6438847
146	0x4003080c	2.0473661
147	0xbe258064	-0.16162258
148	0xbf5eb8e5	-0.87000877
149	0xc05075dc	-3.2571936
150	0xc071e7f2	-3.7797818
151	0xc02f84a8	-2.7424717
152	0xc01334f0	-2.300106
153	0xc015b7bd	-2.3393395
154	0xc028009d	-2.6250374
155	0xc0206cca	-2.50664
156	0xc07393fc	-3.8059072
157	0xc03c5d43	-2.9431922
158	0xc0697acd	-3.6481202
159	0xc0928070	-4.5781784
160	0xc089e0e0	-4.3087006
161	0xc08e800e	-4.4531317
162	0xc0c7743b	-6.2329383
163	0xc1016cb6	-8.089041
164	0xc10f830b	-8.969493
165	0xc10c8d19	-8.784448
166	0xc1055663	-8.3335905
167	0xc0d24a53	-6.571573
168	0xc0e3d8e7	-7.1202273
169	0xc1078ff9	-8.47265
170	0xc12edd13	-10.928973
171	0xc12603da	-10.37594
172	0xc11d9dbd	-9.85101
173	0xc12f0b28	-10.940224
174	0xc113b1b1	-9.230882
175	0xc110a5d9	-9.04049
176	0xc120dc20	-10.053741
177	0xc12c3f0d	-10.765393
178	0xc12fac55	-10.979573
179	0xc1519e02	-13.101076
180	0x40f14faa	7.5409746
181	0x40a71ad0	5.222023
182	0x402dd872	2.7163358
183	0x400d7776	2.2104163
184	0x4080ff85	4.0311913
185	0x40980416	4.750499
186	0x4025e81c	2.5922918
187	0x3f99e999	1.2024413
188	0x3e7269f6	0.23673233
189	0x3f3950d6	0.7238897
190	0x402a2be6	2.6589293
191	0x3ee9f09d	0.45691386
192	0x3fa2d872	1.2722304
193	0x3ffa5e48	1.9560022
194	0x3ffa3c5f	1.9549674
195	0x3ef74f34	0.48302615
196	0x3fdf686f	1.7453746
197	0x3ee9d5a5	0.4567081
198	0xbdb5e11d	-0.088808276
199	0x3de2349f	0.11045193
200	0xbd0ad792	-0.03389699
201	0x3ebf3d1e	0.37351316
202	0x3f71c73f	0.9444465
203	0x3f707ada	0.93937457
204	0x3f9847d3	1.1896919
205	0x3f988057	1.1914166
206	0x3f9716a0	1.180378
207	0xbe48aeb8	-0.195979
208	0xbfd36ef4	-1.6518235
209	0xc0575451	-3.3645213
210	0xc07e2f22	-3.9716268
211	0xc05783e2	-3.3674245
212	0xc03bc364	-2.9338007
213	0xc011e7a8	-2.2797642
214	0xc01166d9	-2.2719023
215	0xc0367bf8	-2.8513165
216	0xc04eb9c4	-3.2300882
217	0xc082d7ed	-4.088858
218	0xc0634743	-3.5512245
219	0xc08059b7	-4.0109515
220	0xc0981806	-4.7529325
221	0xc09e4068	-4.945362
222	0xc0c54143	-6.1642165
223	0xc1031fed	-8.195294
224	0xc110530a	-9.020273
225	0xc1155c65	-9.335057
226	0xc106208b	-8.382945
227	0xc0e3c59b	-7.1178718
228	0xc0da3700	-6.819214
229	0xc1028c99	-8.159326
230	0xc1258eb5	-10.347341
231	0xc122936b	-10.160991
232	0xc124d93e	-10.303038
233	0xc12ea802	-10.916018
234	0xc1138fd6	-9.222616
235	0xc108e489	-8.555795
236	0xc1280cc0	-10.503113
237	0xc12c62d3	-10.774127
238	0xc1379583	-11.474002
239	0xc141a491	-12.102677
240	0x40aa7efd	5.3280015
241	0x40aca649	5.3952985
242	0x40a796c8	5.237156
243	0x400dd7bc	2.2162924
244	0x4042eecc	3.045825
245	0x400028ac	2.0024824
246	0x3fd0ecdf	1.6322287
247	0x3f284464	0.65729356
248	0xbeb38647	-0.35063383
249	0x3f810de6	1.0082366
250	0x3fdb8dca	1.7152646
251	0x3fcbd89a	1.5925477
252	0x40077f36	2.1171393
253	0x401a5b35	2.4118168
254	0x40404dad	3.004741
255	0x3fef4ca6	1.8695266
