ADL_DCASE_DATA/development/audio/b006_150_180.npy (npy, 360368 bytes, 1 tensors)

array (column-major) f4 [60, 1501]
0.21914636 2.5660484 1.4917374 1.6267841 2.7001708 0.4792843 0.27884784 -0.49653295
-0.6006857 -0.78537256 -2.6019356 -3.796903 -1.7098423 -1.2254404 0.78755826 2.0753074
-0.7247165 0.37926254 0.74850124 -0.25476608 1.2852315 -0.09236535 0.6840622 -2.079221
-4.245814 -3.495542 -2.2729352 -3.9972332 -3.5465991 -3.3856268 -3.7482162 -4.244062
-4.4732146 -4.850291 -3.9692988 -3.3235261 -2.8008547 -3.6227958 -3.5602527 -3.9812467
-4.7344923 -6.236599 -8.307467 -9.469808 -10.6501255 -10.713894 -10.588873 -10.406839
-11.01665 -11.300483 -11.487534 -12.252678 -13.027654 -13.886285 -14.477027 -14.061676
-14.064158 -14.024716 -13.934158 -13.972886 2.5655932 2.1479297 0.63933074 1.8406072
1.8823049 0.74138975 -0.68481505 -0.6000226 -0.17865224 -2.227511 -2.6188629 -3.045375
-3.394015 -3.3240108 0.4155413 0.62703407 -0.6326579 1.2692089 1.15318 1.2421267
0.64158916 -0.35673434 0.31577617 -2.061983 -2.0641794 -2.105805 -1.3018727 -2.3888934
-3.3872077 -3.4042497 -3.1276608 -3.4821732 -4.6118803 -4.264794 -4.426662 -4.562019
-3.714005 -3.8595598 -4.06695 -4.808183 -5.9306374 -6.58522 -8.213507 -9.600379
-10.628656 -10.719978 -10.645638 -11.31051 -10.933893 -12.070574 -12.988426 -14.214511
-14.772378 -15.464049 -16.37583 -15.8666725 -15.801183 -15.933622 -16.353186 -17.703213
2.0531437 2.1835334 -0.2645697 0.96204257 2.1119175 1.1140548 -1.9516685 -0.7243863
-1.7099407 -2.0072014 -2.249365 -3.2592018 -4.068703 -2.9562318 -1.0510902 0.14160046
-0.34552 1.2105073 0.9958626 1.7968581 0.48525837 0.850698 -0.6509043 -1.8485943
-1.2965733 -2.6169317 -2.7329168 -3.233692 -4.3766994 -3.966733 -2.5370772 -3.221948
-3.5548491 -3.4966073 -4.4589353 -4.7079134 -4.1019635 -2.997007 -4.014649 -4.9626594
-5.777322 -5.862109 -7.851595 -10.2205515 -11.1026535 -11.137467 -11.481219 -10.456362
-11.051229 -12.140448 -13.223627 -13.698763 -13.748256 -13.975793 -14.414624 -14.432854
-14.473257 -14.503213 -14.6114235 -14.756747 2.846677 2.489027 -0.35715503 -1.7438415
-2.1005704 -2.3305223 0.46548906 0.24517345 -2.6548724 -2.516365 -3.8262894 -3.6222854
-3.7066085 -3.7737892 -2.4557085 -0.33672106 -0.116228625 1.4951469 1.8803364 2.4263213
0.7513564 -0.11444958 -1.3776616 -2.4595814 -0.74947184 -0.70686066 -1.2574797 -1.6650501
-3.534582 -3.807325 -3.8012855 -4.1595526 -3.5957515 -3.6220906 -3.9524035 -3.148583
-3.9774437 -3.2186563 -3.9437215 -5.091455 -5.374718 -6.213742 -8.070494 -10.239465
-10.571447 -10.797187 -10.845285 -10.375885 -10.580336 -13.325905 -13.032686 -13.718922
-14.577718 -15.329398 -15.922413 -15.608273 -15.527689 -16.239355 -16.297052 -17.888916
3.1236448 2.4893801 -0.57632035 0.3903015 1.3405417 -0.7973297 -0.7956715 -0.5297133
-1.4360154 -1.7878678 -3.2443626 -3.6860046 -3.2400594 -2.1405554 1.1063334 -0.13295999
00000000: e767 603e 233a 2440 40f1 be3f 763a d03f
00000010: 99cf 2c40 c064 f53e 25c5 8e3e 9139 febe
00000020: 8ac6 19bf 2d0e 49bf 1d86 26c0 7500 73c0
00000030: 1ddc dabf 3bdb 9cbf 6b9d 493f d6d1 0440
00000040: 0587 39bf b32e c23e c79d 3f3f b370 82be
00000050: 7782 a43f 0b2a bdbd b31e 2f3f f511 05c0
00000060: b5dd 87c0 f6b6 5fc0 c577 11c0 abd2 7fc0
00000070: 7bfb 62c0 1cae 58c0 c6e2 6fc0 5bcf 87c0
00000080: 9324 8fc0 9535 9bc0 fe08 7ec0 a7b4 54c0
00000090: 3441 33c0 e3db 67c0 2edb 63c0 bfcc 7ec0
000000a0: f680 97c0 3892 c7c0 63eb 04c1 5584 17c1
000000b0: ea66 2ac1 1c6c 2bc1 066c 29c1 6a82 26c1
000000c0: 3344 30c1 c7ce 34c1 f0cc 37c1 f80a 44c1
000000d0: 4571 50c1 392e 5ec1 e7a1 67c1 a0fc 60c1
000000e0: cb06 61c1 3d65 60c1 50f2 5ec1 f190 5fc1
000000f0: ae32 2440 ae77 0940 2eab 233f 0499 eb3f
00000100: 5eef f03f b8cb 3d3f 0a50 2fbf 159b 19bf
00000110: 9df0 36be 8a8f 0ec0 739b 27c0 6de7 42c0
00000120: 8b37 59c0 98bc 54c0 d4c1 d43e 4e85 203f
00000130: def5 21bf 7075 a23f 679b 933f 02fe 9e3f
00000140: 303f 243f e2a5 b6be 6aad a13e 88f7 03c0
00000150: 841b 04c0 82c5 06c0 c4a3 a6bf a1e3 18c0
00000160: 03c8 58c0 3adf 59c0 982b 48c0 eddb 5ec0
00000170: 8694 93c0 3179 88c0 37a7 8dc0 0ffc 91c0
00000180: 42b2 6dc0 0703 77c0 7424 82c0 a3dc 99c0
00000190: c8c7 bdc0 1fba d2c0 866a 03c1 279b 19c1
000001a0: fa0e 2ac1 0885 2bc1 8954 2ac1 d9f7 34c1
000001b0: 3af1 2ec1 1221 41c1 98d0 4fc1 a36e 63c1
000001c0: a95b 6cc1 bf6c 77c1 b301 83c1 e4dd 7dc1
000001d0: a5d1 7cc1 1ef0 7ec1 53d3 82c1 2ea0 8dc1
000001e0: b566 0340 03bf 0b40 ae75 87be 6c48 763f
000001f0: a829 0740 5999 8e3f 46d0 f9bf 6171 39bf
00000200: 56df dabf fd75 00c0 99f5 0fc0 c396 50c0
00000210: d132 82c0 e732 3dc0 208a 86bf b6ff 103e
00000220: ffe7 b0be e7f1 9a3f daf0 7e3f 72ff e53f
00000230: c973 f83e 58c7 593f aaa1 26bf bd9e ecbf
00000240: 1df6 a5bf cf7b 27c0 1ce8 2ec0 cff4 4ec0
00000250: ec0d 8cc0 f4de 7dc0 795f 22c0 6534 4ec0
00000260: a682 63c0 6ac8 5fc0 99af 8ec0 3aa7 96c0
00000270: 4943 83c0 f6ce 3fc0 0178 80c0 1bce 9ec0
00000280: d2df b8c0 6696 bbc0 4440 fbc0 6187 23c1
00000290: 78a4 31c1 1133 32c1 13b3 37c1 424d 27c1
000002a0: d5d1 30c1 463f 42c1 fa93 53c1 222e 5bc1
000002b0: dbf8 5bc1 d99c 5fc1 4da2 66c1 f8ec 66c1
000002c0: 7692 67c1 290d 68c1 64c8 69c1 a31b 6cc1
000002d0: f52f 3640 384c 1f40 06dd b6be 3336 dfbf
000002e0: bf6f 06c0 4727 15c0 9554 ee3e c00e 7b3e
000002f0: 6ee9 29c0 200c 21c0 ede1 74c0 86d3 67c0
00000300: 1339 6dc0 c385 71c0 542a 1dc0 b466 acbe
00000310: 4609 eebd f960 bf3f ddae f03f d948 1b40
00000320: e558 403f 8b64 eabd 3757 b0bf c869 1dc0
00000330: 63dd 3fbf d2f4 34bf 18f5 a0bf 5d20 d5bf
00000340: 9736 62c0 36ab 73c0 4348 73c0 0e1b 85c0
00000350: cb20 66c0 55d0 67c0 2ef4 7cc0 6282 49c0
00000360: 708e 7ec0 77fe 4dc0 ef65 7cc0 33ed a2c0
00000370: b1fd abc0 f9d6 c6c0 be20 01c1 d9d4 23c1
00000380: a624 29c1 47c1 2cc1 4a86 2dc1 a003 26c1
00000390: 0e49 29c1 e836 55c1 e285 50c1 b480 5bc1
000003a0: 553e 69c1 3745 75c1 34c2 7ec1 7cbb 79c1
000003b0: 6a71 78c1 33ea 81c1 5d60 82c1 801c 8fc1
000003c0: cce9 4740 0152 1f40 bb89 13bf 99d5 c73e
000003d0: df96 ab3f cd1d 4cbf 21b1 4bbf 4a9b 07bf
000003e0: 5acf b7bf dad8 e4bf a3a3 4fc0 80e7 6bc0
000003f0: 225d 4fc0 dcfe 08c0 559c 8d3f aa26 08be
