ADL_DCASE_DATA/development/audio/b050_60_90.npy (npy, 360368 bytes, 1 tensors)

array (column-major) f4 [60, 1501]
0	0x4085198b	4.159368
1	0x3f69caca	0.91325057
2	0x3f7f67f3	0.9976799
3	0xbe6b0bad	-0.22953673
4	0xbfa9f0fc	-1.3276668
5	0xbf936a8d	-1.1516892
6	0xbf8cd245	-1.1001669
7	0xc0390321	-2.890816
8	0xc0091c61	-2.142357
9	0xbedbc1fb	-0.42921433
10	0xbf232889	-0.63733727
11	0x3f8b60b3	1.0888885
12	0x3ea55047	0.3228781
13	0x3fb7bb93	1.4354118
14	0xbf525acb	-0.8216979
15	0xbeea6ff0	-0.45788527
16	0x3ec368f6	0.38166016
17	0xbfc26c5a	-1.5189316
18	0xc02b5a1a	-2.6773744
19	0x3ee64f0b	0.4498218
20	0x3d904873	0.070450686
21	0xc010375d	-2.253379
22	0xc057f1e8	-3.3741398
23	0xc03ca258	-2.9474087
24	0xc0275886	-2.614778
25	0xc0148822	-2.320809
26	0xbfe952cf	-1.8228396
27	0xbffa1731	-1.9538327
28	0xc04359a4	-3.0523462
29	0xc0aa6b5a	-5.3256044
30	0xc0c6774f	-6.202064
31	0xc096db37	-4.7142596
32	0xc0a14d01	-5.04065
33	0xc0a94613	-5.289804
34	0xc0a14cdd	-5.0406327
35	0xc0a4c1bc	-5.148649
36	0xc0a13b92	-5.038522
37	0xc0e3dfe5	-7.121081
38	0xc1157d96	-9.343161
39	0xc1029954	-8.162434
40	0xc1044129	-8.265908
41	0xc1133836	-9.201223
42	0xc12040c6	-10.015814
43	0xc1226d70	-10.151718
44	0xc11d2ceb	-9.823466
45	0xc12dae40	-10.8550415
46	0xc12faf3f	-10.980285
47	0xc13a88ba	-11.6583805
48	0xc13b0494	-11.688618
49	0xc146ec65	-12.4327135
50	0xc15c5baa	-13.772379
51	0xc15bc035	-13.734426
52	0xc165562e	-14.33354
53	0xc161d063	-14.113376
54	0xc16a9cf1	-14.663316
55	0xc16f9c01	-14.975587
56	0xc1749f54	-15.288898
57	0xc162c75c	-14.173672
58	0xc0eb1661	-7.346482
59	0xc11e0afd	-9.877683
60	0x4045b480	3.0891418
61	0x3fdb4559	1.7130538
62	0x3fe42233	1.7822937
63	0x3f3ccdf4	0.7375176
64	0x3fd5369e	1.6657293
65	0xbe6d1389	-0.23151983
66	0xbfebbe7c	-1.8417506
67	0xbfddf785	-1.7341162
68	0xc00703ff	-2.109619
69	0x3f867f31	1.0507566
70	0x3f0a77b8	0.54088926
71	0x3fee2ac2	1.8606799
72	0x40008edb	2.0087192
73	0xbf1d7039	-0.61499363
74	0xbeda4ebf	-0.42638204
75	0x3f18d40f	0.59698576
76	0x3eab8349	0.334986
77	0xbdccb34a	-0.09995134
78	0xbf600d3d	-0.875202
79	0x3e8be31c	0.27321708
80	0x3dbbc07b	0.09167572
81	0xbfa542b3	-1.291098
82	0xbffdfea2	-1.9843333
83	0xc04bbfc2	-3.183579
84	0xc0569230	-3.3526726
85	0xc04e2ea9	-3.221598
86	0xc0754595	-3.832372
87	0xc0625577	-3.5364664
88	0xc059d075	-3.4033482
89	0xc0995bea	-4.79247
90	0xc0b6ff11	-5.718636
91	0xc06ef8bb	-3.7339313
92	0xc07ae03f	-3.919937
93	0xc0b20630	-5.5632553
94	0xc09e2750	-4.942299
95	0xc08ac121	-4.3360753
96	0xc0809d0e	-4.0191717
97	0xc0a7d7f2	-5.2451105
98	0xc0a2ca43	-5.08719
99	0xc0b93ea9	-5.788899
100	0xc0b2ca6f	-5.587211
101	0xc0e6c656	-7.211711
102	0xc1172dea	-9.4487095
103	0xc12264a7	-10.149573
104	0xc11e3e8b	-9.890269
105	0xc1220d6c	-10.128277
106	0xc132a723	-11.165805
107	0xc13a9a85	-11.6627245
108	0xc13c175c	-11.755703
109	0xc14464cd	-12.27461
110	0xc1585510	-13.520767
111	0xc15d3a64	-13.826756
112	0xc15ac0be	-13.672056
113	0xc14d5740	-12.833801
114	0xc1501417	-13.004905
115	0xc15aeae1	-13.6823435
116	0xc16ba5c5	-14.727971
117	0xc16e5e37	-14.898002
118	0xc0ec5aeb	-7.3860984
119	0xc1205367	-10.020362
120	0x3f96d534	1.1783814
121	0x3e12fce3	0.14354281
122	0x4046d389	3.106661
123	0x3ffa9a9e	1.9578435
124	0x3fbbf946	1.4685447
125	0x3f954672	1.1662123
126	0xbe867424	-0.26260483
127	0xbf0e2868	-0.55530405
128	0x3f133e5d	0.57517034
129	0x3febe19d	1.8428227
130	0x40088b1c	2.1334906
131	0x3f9ea676	1.239455
132	0x40174eae	2.3641772
133	0x3d972ab3	0.07381191
134	0x3fa00181	1.2500459
135	0x3fd0a5e2	1.6300623
136	0xbee96678	-0.4558599
137	0xbe40b41f	-0.1881871
138	0x3fbbb69b	1.4665102
139	0x3fc5c602	1.5451052
140	0x3f848f39	1.0356208
141	0x3f569625	0.8382285
142	0xbf97fe75	-1.1874529
143	0xbf794478	-0.973701
144	0xbf8e8f91	-1.1137563
145	0xbfc9e660	-1.577343
146	0xc022ab36	-2.5417
147	0xbffd20e0	-1.9775658
148	0xc02c22f2	-2.689633
149	0xc08217f2	-4.065423
150	0xc075c861	-3.8403552
151	0xc04b934d	-3.1808655
152	0xc051c907	-3.2778947
153	0xc05a5b0b	-3.4118068
154	0xc05abb2f	-3.4176748
155	0xc0623e40	-3.5350494
156	0xc064362b	-3.5658062
157	0xc0856e13	-4.169687
158	0xc06455c3	-3.5677345
159	0xc098500d	-4.759772
160	0xc088ffc5	-4.281222
161	0xc0c7e9a6	-6.2472715
162	0xc1094eef	-8.581771
163	0xc11811aa	-9.5043125
164	0xc1009a7c	-8.037716
165	0xc0ecab46	-7.3959074
166	0xc107d101	-8.488526
167	0xc10c4dca	-8.768991
168	0xc11fc906	-9.986578
169	0xc12cbd8b	-10.796275
170	0xc13d0a67	-11.81504
171	0xc14a123f	-12.629455
172	0xc15b2662	-13.696871
173	0xc161208b	-14.070445
174	0xc1610d90	-14.065811
175	0xc162101b	-14.128932
176	0xc165695a	-14.338221
177	0xc16d8575	-14.845082
178	0xc0fba0f9	-7.8634
179	0xc127f3f4	-10.497059
180	0x401b8cdd	2.4304726
181	0x3ff3a63d	1.9035107
182	0x4026f60c	2.6087675
183	0x3f94cb15	1.1624476
184	0x3f875908	1.0574045
185	0x3f8492be	1.0357282
186	0x3f816f60	1.0112114
187	0x3ed07758	0.40716052
188	0x3fcc87c8	1.5978937
189	0xbf2a1197	-0.6643309
190	0xbfb13197	-1.3843259
191	0x3ff5ff9c	1.9218631
192	0x3fe4a9e8	1.7864351
193	0x3ef21786	0.47283572
194	0x3e91dacb	0.28487238
195	0x3ee8d523	0.4547511
196	0x3fa65b5d	1.2996632
197	0xbe06607d	-0.13122745
198	0xbe4eb20d	-0.20185108
199	0xbf7e180d	-0.9925545
200	0xbf28a8ad	-0.6588238
201	0xbdedbc2b	-0.11608156
202	0xbff07772	-1.8786452
203	0xc09f3929	-4.9757276
204	0xc029fa15	-2.6558888
205	0xc00fa8cd	-2.2446778
206	0xc0432a06	-3.04944
207	0xc032c8a7	-2.7934968
208	0xc0638839	-3.5551894
209	0xc0ab8adc	-5.3607006
210	0xc09b9947	-4.8624606
211	0xc08717e0	-4.2216644
212	0xc09fa690	-4.9890823
213	0xc08d15d2	-4.4089136
214	0xc095f5ef	-4.686271
215	0xc0a5d94d	-5.182776
216	0xc0b52c56	-5.661662
217	0xc0cecb02	-6.462281
218	0xc0e1d862	-7.057664
219	0xc0eb89e3	-7.360582
220	0xc1022c49	-8.135812
221	0xc105dd4c	-8.366528
222	0xc1195aa7	-9.584632
223	0xc1218ca1	-10.096833
224	0xc112336a	-9.137552
225	0xc117c3d0	-9.485306
226	0xc11d0c12	-9.815447
227	0xc1310cd5	-11.065633
228	0xc13b1419	-11.692407
229	0xc148a625	-12.540563
230	0xc152d8c8	-13.177925
231	0xc15dec8d	-13.870252
232	0xc160b4b1	-14.044114
233	0xc161cb2b	-14.112102
234	0xc1611b2b	-14.069133
235	0xc165b7f1	-14.357408
236	0xc1636364	-14.211765
237	0xc16ab45a	-14.669031
238	0xc0fae0c2	-7.8399363
239	0xc12761e5	-10.4614
240	0x3fce97ee	1.6140115
241	0x3f3a2e47	0.72726864
242	0x3f871c98	1.0555601
243	0x3f9a5e3a	1.2060006
244	0x3fd5d99b	1.6707033
245	0xbe1f1363	-0.15534739
246	0x3f89392b	1.0720571
247	0x3f83eb64	1.030621
248	0x40140fed	2.313472
249	0x3f303388	0.6882863
250	0xbfaba8a1	-1.3410836
251	0x3eb5f218	0.35536265
252	0x3f52ea9b	0.8238923
253	0xbf6420a9	-0.89112335
254	0xbfeaa714	-1.8332238
255	0xbe9f0782	-0.31060416
