ADL_DCASE_DATA/development/audio/b084_180_210.npy (npy, 360368 bytes, 1 tensors)

array (column-major) f4 [60, 1501]
000000 f6 39 8f bf 2b 57 d5 3e 56 5c b1 3b ee e7 f3 3f
       -1.1189563 0.41668066 0.0054126186 1.9055154
000010 41 21 39 40 2f 9a 04 40 42 63 0f 3f a2 8a ca bd
       2.8926547 2.0719106 0.5601083 -0.09889723
000020 70 0a 77 3e 17 98 60 be d7 be fa bf 36 b9 24 c0
       0.24125075 -0.21933018 -1.958949 -2.5738044
000030 f5 2e 3a c0 a8 7d 8f c0 49 8e 29 c0 8a 21 8d c0
       -2.909116 -4.484089 -2.6493094 -4.410344
000040 e3 b0 3f c0 b1 a7 e0 bf e9 83 25 c0 79 c9 47 c0
       -2.9951713 -1.7551175 -2.5861762 -3.121672
000050 cb f8 91 c0 e1 61 f9 bf 9a 41 ed bf 74 5b 11 c0
       -4.56162 -1.9482995 -1.8535645 -2.2712069
000060 c5 34 29 c0 d2 01 1b c0 05 a7 66 c0 3e 2f 7b c0
       -2.6438458 -2.421986 -3.603944 -3.9247584
000070 6f eb b2 c0 7b f5 a1 c0 99 a6 94 c0 9f d7 6f c0
       -5.5912395 -5.061216 -4.6453366 -3.7475355
000080 b0 38 4e c0 69 30 7e c0 b5 28 73 c0 bb b0 8f c0
       -3.22221 -3.9717047 -3.7993596 -4.4903235
000090 44 56 90 c0 b7 f9 9b c0 84 b9 a3 c0 56 ea b6 c0
       -4.5105305 -4.874233 -5.116396 -5.7161055
0000a0 1d 9f ba c0 34 a9 d2 c0 14 c7 17 c1 3e 37 11 c1
       -5.831923 -6.5831547 -9.486103 -9.075987
0000b0 3c db 04 c1 93 25 10 c1 3c 9f 1b c1 bc 40 19 c1
       -8.303524 -9.009173 -9.726376 -9.578304
0000c0 b5 36 1a c1 49 69 2d c1 cd 49 41 c1 db b8 4d c1
       -9.638356 -10.838204 -12.080518 -12.857631
0000d0 80 ec 42 c1 19 b5 49 c1 6d 01 5e c1 d1 4a 57 c1
       -12.182739 -12.606713 -13.875348 -13.455766
0000e0 83 47 61 c1 df 64 60 c1 78 91 70 c1 9d b5 87 c1
       -14.079959 -14.024627 -15.035515 -16.963678
0000f0 7a 0f 4a 40 da e3 2a 40 f7 b0 24 40 02 56 27 40
       3.1571946 2.670157 2.573301 2.6146245
000100 4b 0f 5b 40 1b 65 54 40 da 79 f5 3e e8 48 a5 bd
       3.4228084 3.318671 0.47944528 -0.080705464
000110 cb a7 56 be c7 69 12 c0 c8 ad a8 bf 4b 53 98 bf
       -0.20962445 -2.2877061 -1.3178034 -1.1900419
000120 d8 6c 4e c0 17 44 7f c0 a3 27 6a c0 70 26 92 c0
       -3.2253933 -3.9885309 -3.6586692 -4.567192
000130 a4 75 70 c0 1d 25 50 c0 16 be 39 c0 54 83 21 c0
       -3.7571802 -3.2522652 -2.902227 -2.5236406
000140 9b 20 27 c0 1e 15 54 c0 dc 27 82 bf 9a da 61 bf
       -2.611365 -3.313789 -1.0168414 -0.88224185
000150 49 79 1c c0 44 0e e3 bf 4e 5c 23 c0 64 c0 6d c0
       -2.4449027 -1.7738729 -2.5525088 -3.7148676
000160 97 f0 85 c0 06 40 ad c0 71 70 97 c0 5a b1 77 c0
       -4.185619 -5.4140654 -4.7324758 -3.8701997
000170 5c d4 89 c0 53 02 9a c0 0e fb 99 c0 b2 18 8c c0
       -4.307173 -4.8127837 -4.8118963 -4.3780146
000180 fe 19 9f c0 9b 79 94 c0 a7 6b 96 c0 f0 28 ab c0
       -4.971923 -4.6398444 -4.700641 -5.3487473
000190 2a c1 af c0 65 7a c9 c0 f4 75 06 c1 9f 76 15 c1
       -5.4923296 -6.2961907 -8.403797 -9.34146
0001a0 eb d6 17 c1 77 96 17 c1 fe e2 19 c1 a4 93 17 c1
       -9.48997 -9.474235 -9.617918 -9.473545
0001b0 bc 29 1d c1 5e 0e 2f c1 3b ba 43 c1 11 78 43 c1
       -9.822689 -10.941008 -12.232966 -12.216813
0001c0 63 8e 49 c1 12 9d 4f c1 18 70 4c c1 71 1d 46 c1
       -12.597262 -12.975847 -12.777367 -12.382188
0001d0 24 3d 52 c1 38 af 5c c1 b5 90 62 c1 45 a7 6c c1
       -13.139927 -13.792778 -14.160329 -14.790837
0001e0 df 80 4b 40 2e 16 8e 40 51 6d 80 40 7a 77 2f 40
       3.1797407 4.4402075 4.0133443 2.7416673
0001f0 ac c1 c0 3f de e7 83 3f b5 92 01 3f f0 11 f1 3f
       1.5059104 1.0305135 0.5061448 1.8833599
000200 a4 fd 85 3f ec f7 1e be 41 84 13 c0 e5 98 53 bf
       1.046803 -0.15524262 -2.3049471 -0.82655174
000210 eb 56 96 bf 92 d6 15 c0 75 e2 36 c0 e9 68 66 c0
       -1.1745275 -2.3412213 -2.8575718 -3.6001532
000220 5e cd 61 c0 a5 69 50 c0 6a 26 4b c0 53 07 27 c0
       -3.5281596 -3.256448 -3.1742196 -2.609822
000230 84 27 13 c0 64 ff 1b c0 02 ca c5 bd f5 cf cb bf
       -2.2992868 -2.4374628 -0.096576706 -1.5922838
000240 55 b2 01 c0 cf 69 18 c0 37 7a 26 c0 ff 34 35 c0
       -2.0265095 -2.381458 -2.6012094 -2.8313596
000250 fd bc 90 c0 3f 4c b6 c0 a0 a5 9a c0 d3 d7 a4 c0
       -4.52307 -5.6968074 -4.832718 -5.1513457
000260 c9 88 a5 c0 55 f1 87 c0 1f 7b 86 c0 3f 06 58 c0
       -5.1729474 -4.2482095 -4.2025294 -3.3753812
000270 ae bf 76 c0 d6 d0 8d c0 7b 90 a3 c0 f8 3e 9b c0
       -3.8554492 -4.4317427 -5.111387 -4.8514366
000280 d5 d9 95 c0 db bb ae c0 b9 5b ea c0 9c a3 0e c1
       -4.682841 -5.4604316 -7.3236966 -8.914944
000290 5e ee 0f c1 d1 4c 09 c1 80 1e 08 c1 26 eb 14 c1
       -8.995695 -8.581254 -8.507446 -9.307409
0002a0 44 c7 20 c1 fb 58 23 c1 58 0c 32 c1 bb 33 40 c1
       -10.048649 -10.209224 -11.128014 -12.0126295
0002b0 8b ff 45 c1 74 f6 46 c1 00 fb 41 c1 e8 c4 4a c1
       -12.374888 -12.435169 -12.123779 -12.673073
0002c0 d9 70 5b c1 8e 85 51 c1 82 fc 65 c1 c5 87 7e c1
       -13.715051 -13.095106 -14.374147 -15.908147
0002d0 a9 28 f6 3f 4f 62 62 40 67 2f 31 40 15 7a cb 3f
       1.9231158 3.5372503 2.7685182 1.5896631
0002e0 64 43 b5 3f ca 33 57 bf e3 02 23 3f df cc 39 40
       1.4161191 -0.840634 0.6367628 2.9031293
0002f0 a8 65 5e 3f ad 07 01 bf a7 39 7a bf 1e f3 9f bf
       0.86873865 -0.5040234 -0.9774422 -1.2496068
000300 a0 5d 1f c0 fa 6e ff bf bf ec f6 bf f5 43 00 c0
       -2.4900894 -1.9955742 -1.9290999 -2.0041478
000310 e5 fd 22 c0 ff 04 59 c0 45 62 0e c0 a9 43 52 c0
       -2.5467465 -3.39093 -2.224748 -3.2853796
000320 f2 9b 53 c0 da cb 4a c0 b7 a4 13 c0 dd e8 dd bf
       -3.3063931 -3.168692 -2.3069284 -1.7336689
000330 f0 a3 0a c0 d5 6d 1c c0 e4 93 42 c0 36 d3 5f c0
       -2.166256 -2.4442036 -3.0402765 -3.4972663
000340 f6 e0 95 c0 8c 73 a6 c0 e7 bc 9e c0 52 aa 84 c0
       -4.683711 -5.201605 -4.9605594 -4.145791
000350 60 f4 82 c0 3c fe 82 c0 51 e3 58 c0 6e a9 14 c0
       -4.092331 -4.0935345 -3.3888743 -2.3228412
000360 c1 b4 52 c0 0c 03 67 c0 46 df 81 c0 86 ba 93 c0
       -3.2922823 -3.609561 -4.058505 -4.616519
000370 08 18 9b c0 90 37 a6 c0 0d d9 cf c0 e8 ae fa c0
       -4.8466835 -5.1942825 -6.4952455 -7.833851
000380 cf 56 ef c0 68 09 00 c1 57 5a 08 c1 0d 65 0b c1
       -7.4793468 -8.002296 -8.522056 -8.712171
000390 ef 58 10 c1 09 bc 15 c1 a8 10 33 c1 a8 30 38 c1
       -9.021712 -9.358407 -11.191566 -11.511879
0003a0 c2 34 29 c1 64 cc 2f c1 86 28 30 c1 7f 4e 3b c1
       -10.57538 -10.9874 -11.009893 -11.706664
0003b0 89 e7 45 c1 93 e4 3f c1 ec 35 5a c1 0c 0e 6f c1
       -12.369027 -11.993304 -13.6381645 -14.940929
0003c0 58 ee 50 40 8d 95 36 40 c7 c0 d2 3f 1d c9 d6 3f
       3.2645473 2.8528779 1.6465081 1.6780125
0003d0 ea 1c 4d 3f 1e 71 9a 3f de 0d 3b 3f f5 9a c5 3f
       0.80122244 1.2065771 0.73068035 1.5437914
0003e0 ec e7 18 bf 9f f3 c3 3d 37 31 de 3f c8 43 bd bf
       -0.59728885 0.095679514 1.7358769 -1.478631
0003f0 55 d1 40 c0 a6 c8 47 c0 f3 58 49 c0 44 81 5a c0
       -3.0127766 -3.1216216 -3.146054 -3.4141397
