ADL_DCASE_DATA/development/audio/b085_0_30.npy (npy, 360368 bytes, 1 tensors)

array (column-major) f4 [60, 1501]
000000 6e 85 af 40 5e d4 7b 3f 57 fb d7 3f 90 a5 34 40
       5.485038 0.9837092 1.6873578 2.8226051
000010 3a f0 20 40 ef 83 bb 3f c2 52 89 3d 5d 6b 43 3f
       2.5146623 1.4649638 0.06705238 0.763357
000020 fb 7c be be 98 79 9d bf e0 67 a1 c0 ec 15 a7 c0
       -0.37204728 -1.2302732 -5.04393 -5.221426
000030 ee 23 67 c0 fc 4c 43 c0 44 88 3f c0 63 ae 4f c0
       -3.611568 -3.0515738 -2.992692 -3.2450187
000040 6b b8 84 c0 50 da b9 c0 e6 68 8d c0 82 c0 b4 c0
       -4.147512 -5.8078995 -4.419055 -5.6484995
000050 77 cf 92 c0 2b 2c 82 c0 db 30 8c c0 28 cf 58 c0
       -4.5878253 -4.0678916 -4.380964 -3.3876438
000060 bb 8a 6a c0 24 15 26 c0 3f 61 27 c0 b6 b8 87 c0
       -3.6647174 -2.5950403 -2.6153104 -4.2412977
000070 a1 23 93 c0 b8 ba c9 c0 d0 e0 9c c0 a8 9d d0 c0
       -4.598099 -6.304043 -4.902443 -6.519245
000080 a3 f0 aa c0 74 c2 9a c0 3f be ac c0 c8 66 8f c0
       -5.3418746 -4.836237 -5.3982234 -4.4812965
000090 99 f1 c0 c0 c9 53 c6 c0 e3 65 f0 c0 ab 18 05 c1
       -6.029492 -6.1977277 -7.5124373 -8.318522
0000a0 9d 92 19 c1 81 a1 1c c1 95 f4 37 c1 58 c1 4d c1
       -9.598294 -9.78943 -11.497212 -12.859703
0000b0 b3 04 49 c1 6b ab 43 c1 a0 f3 5b c1 02 6b 5a c1
       -12.563647 -12.22935 -13.746979 -13.651125
0000c0 c8 19 7c c1 13 5f 80 c1 49 b9 84 c1 f0 b7 83 c1
       -15.756294 -16.046423 -16.590471 -16.464813
0000d0 bb ac 82 c1 04 ba 77 c1 7c 82 80 c1 f8 f5 75 c1
       -16.334341 -15.482914 -16.063713 -15.372551
0000e0 61 4f 81 c1 ad bf 83 c1 63 e6 87 c1 a4 ec 8c c1
       -16.16376 -16.468592 -16.987494 -17.615547
0000f0 f2 a6 ad 40 b1 7d 96 40 14 99 6a 40 f8 35 08 40
       5.426629 4.702843 3.6655931 2.128294
000100 26 4b 08 40 cc d0 60 40 c9 a6 5e 40 e9 10 82 3f
       2.1295867 3.512744 3.4789298 1.016141
000110 18 41 39 3f 9c 86 96 bf 35 a4 f4 bf d6 b1 6a c0
       0.7236495 -1.175983 -1.9112612 -3.6671042
000120 c5 c6 60 c0 88 e9 43 c0 20 10 30 c0 28 26 1b c0
       -3.512132 -3.0611286 -2.7509842 -2.4242039
000130 24 16 3f c0 09 52 20 c0 07 ec 4e c0 4f 0b 67 c0
       -2.9857264 -2.505007 -3.233156 -3.6100652
000140 92 14 2f c0 05 ca 76 c0 1c 6c 4c c0 5f 05 5b c0
       -2.7356305 -3.8560803 -3.1940985 -3.4222028
000150 86 05 43 c0 0d d7 37 c0 a0 46 7d c0 e7 95 b0 c0
       -3.0472121 -2.8725007 -3.9574356 -5.5182986
000160 f9 5c d4 c0 e7 3f b0 c0 46 0e c3 c0 8f 75 ab c0
       -6.636349 -5.5078006 -6.0954924 -5.3581004
000170 8a 3c a8 c0 05 aa a1 c0 3b 75 b5 c0 51 05 a2 c0
       -5.25739 -5.0520043 -5.6705604 -5.063149
000180 bc 8b c3 c0 ae ff d3 c0 c0 8d f9 c0 f5 11 0e c1
       -6.1108074 -6.624961 -7.7985535 -8.879384
000190 69 1f 11 c1 a4 43 1b c1 45 8d 3c c1 0a 1c 53 c1
       -9.0701685 -9.704014 -11.78449 -13.194345
0001a0 2a d3 47 c1 12 a1 4d c1 c0 d7 54 c1 3d 92 65 c1
       -12.489054 -12.851824 -13.302673 -14.348203
0001b0 50 54 6b c1 36 b1 72 c1 c7 31 7d c1 33 0a 82 c1
       -14.708084 -15.168264 -15.824653 -16.25498
0001c0 fe bb 81 c1 da 05 80 c1 ac e0 7d c1 7d f2 79 c1
       -16.216793 -16.002857 -15.867352 -15.621701
0001d0 d4 a9 7e c1 61 9f 80 c1 61 a8 84 c1 32 a0 88 c1
       -15.916462 -16.077822 -16.582216 -17.07822
0001e0 2a 28 a5 40 00 a9 97 40 04 88 75 40 cd ee 18 40
       5.161153 4.73938 3.8364267 2.3895752
0001f0 7c b6 f7 bc a6 e9 be 3e ba 98 14 40 c1 12 38 3f
       -0.030238383 0.37287635 2.3218217 0.71903616
000200 e8 3b aa bf d9 72 a6 bf ce 87 85 c0 45 5d 71 c0
       -1.3299532 -1.3003799 -4.1728277 -3.7713177
000210 64 bb 34 c0 86 2a 0f c0 38 c9 5b c0 c4 05 15 c0
       -2.8239374 -2.2369704 -3.4341564 -2.328477
000220 87 06 64 c0 c0 ac 2a c0 1e 21 38 c0 d4 79 10 c0
       -3.5628984 -2.6667938 -2.8770213 -2.2574358
000230 58 19 69 c0 d0 58 69 c0 cb d3 87 c0 9d 6e 3f c0
       -3.6421719 -3.6460457 -4.2446036 -2.9911263
000240 3e 37 70 c0 fa fe 7b c0 71 ae 25 c0 14 eb 68 c0
       -3.7533717 -3.9374375 -2.588772 -3.639348
000250 49 f4 a6 c0 df 37 8d c0 3b 56 9b c0 89 da 86 c0
       -5.21732 -4.41307 -4.854276 -4.2141767
000260 f7 f1 45 c0 cb a8 93 c0 1b c3 73 c0 2e a7 8f c0
       -3.0928934 -4.6143546 -3.8087833 -4.4891577
000270 63 00 c8 c0 28 4f c3 c0 11 b7 ca c0 8a 1d fd c0
       -6.250047 -6.1034126 -6.334847 -7.909856
000280 65 cb 06 c1 69 ce 0e c1 8a ca 24 c1 6d f9 32 c1
       -8.424657 -8.925393 -10.299448 -11.185895
000290 f0 75 2f c1 c3 49 34 c1 a3 3c 39 c1 96 b9 3a c1
       -10.966293 -11.268008 -11.577304 -11.670309
0002a0 ca 71 3f c1 1b 78 41 c1 8a 64 42 c1 88 c5 43 c1
       -11.965281 -12.091823 -12.149546 -12.235725
0002b0 e3 f6 43 c1 37 d3 44 c1 0c 04 45 c1 3c 0f 45 c1
       -12.247775 -12.301566 -12.313488 -12.316219
0002c0 ff 19 45 c1 74 d1 44 c1 a2 cf 44 c1 d9 80 44 c1
       -12.318847 -12.301136 -12.300692 -12.281457
0002d0 86 27 dc 40 07 cd c8 40 78 78 81 40 d4 ad 04 40
       6.8798246 6.2750278 4.0459557 2.0731096
0002e0 37 6b 9e 3f b4 78 e5 3f 4f f6 1b 40 c0 b4 a8 3e
       1.2376469 1.7927461 2.4369085 0.329504
0002f0 96 ec d4 bf 43 86 2b c0 da 53 5d c0 f6 3a 48 c0
       -1.66347 -2.6800697 -3.458243 -3.1285987
000300 7b bf ee bf b5 36 19 c0 44 b8 57 c0 fe ad 8b c0
       -1.8652185 -2.393964 -3.3706217 -4.3649893
000310 0b 06 62 c0 ad e0 64 c0 9d 4a 89 c0 f3 f9 8f c0
       -3.5316188 -3.5762131 -4.290358 -4.4992614
000320 bb aa 82 c0 fb 44 83 c0 ae 56 8d c0 90 90 36 c0
       -4.083341 -4.1021705 -4.416831 -2.8525734
000330 a0 d8 5c c0 4a e2 63 c0 50 1d 7a c0 c1 07 6a c0
       -3.4507217 -3.5606866 -3.908039 -3.6567233
000340 60 67 ab c0 03 ed b5 c0 fc ca c9 c0 80 c8 ad c0
       -5.356369 -5.685182 -6.3060284 -5.430725
000350 e1 3c 98 c0 16 d4 a1 c0 5c b9 ac c0 7f 1e b4 c0
       -4.7574315 -5.0571394 -5.397627 -5.6287227
000360 60 93 c2 c0 3e 4d bf c0 14 67 d9 c0 93 59 f8 c0
       -6.08049 -5.978179 -6.793833 -7.7609344
000370 b0 7c 06 c1 5b a3 22 c1 4f ff 3e c1 46 a4 4c c1
       -8.405441 -10.164882 -11.937331 -12.790106
000380 18 99 49 c1 5a bb 48 c1 c1 83 4f c1 db ef 5f c1
       -12.599876 -12.54574 -12.9696665 -13.996058
000390 ea bb 64 c1 d1 ce 77 c1 95 ce 7d c1 41 30 83 c1
       -14.295877 -15.487992 -15.862935 -16.398561
0003a0 41 3e 84 c1 89 d7 86 c1 71 25 80 c1 62 47 82 c1
       -16.530397 -16.855242 -16.018282 -16.284855
0003b0 48 be 83 c1 90 47 7e c1 82 f0 85 c1 be c1 8d c1
       -16.46791 -15.892471 -16.742435 -17.7196
0003c0 a2 c9 31 40 de 1b 17 40 80 10 50 40 2b 05 de 3f
       2.7779317 2.3610759 3.251007 1.7345327
0003d0 a2 5e f7 3f 01 75 e1 3f c4 b3 07 40 7b e3 23 be
       1.9325755 1.7613832 2.120347 -0.16004746
0003e0 58 18 0c c0 c3 e1 6b c0 7c eb a5 c0 7c 7f 77 c0
       -2.1889858 -3.6856544 -5.1849957 -3.867156
0003f0 c3 85 51 c0 ad 26 09 c0 bb 1a 6a c0 38 2d 97 c0
       -3.2737892 -2.1429856 -3.6578815 -4.72427
