ADL_DCASE_DATA/development/audio/b086_0_30.npy (npy, 360368 bytes, 1 tensors)

array (column-major) f4 [60, 1501]
00000000: 9f51 3540 c2ae d63f 431f 8740 3399 0140
00000010: 3074 0c40 36f5 1840 d193 543e 9e97 acbe
00000020: c493 6cc0 f670 2abd 3b5b 8e3f 275f 42bf
00000030: 80b6 94bf faf6 943e a013 2dc0 b162 64c0
00000040: 3e5b dabf 79ee 13c0 9467 47c0 df88 67c0
00000050: 091d 29c0 2ddf 84bf 91cf 363f 2537 613f
00000060: bbac 9c3f b43c 8bbd 50ce 453f c450 0abf
00000070: ba3e 91bf a5b9 4dc0 f799 4dc0 4825 11c0
00000080: 7fa1 2cbf 7fb9 1fc0 12ac 4fc0 8e25 8ec0
00000090: 858c bac0 108b 87c0 03e5 b0c0 c45d b9c0
000000a0: d227 b4c0 f952 e5c0 4c76 01c1 fd2a 0cc1
000000b0: 63e0 0dc1 b80a 0bc1 6621 15c1 18d5 1bc1
000000c0: a279 05c1 74f7 1ec1 1279 29c1 03f6 35c1
000000d0: 8a20 34c1 6840 32c1 c729 2ec1 8a7f 29c1
000000e0: 158e 33c1 ea27 2dc1 e784 34c1 401d 48c1
000000f0: 3807 0b40 7025 9640 186a 7440 46e5 e03f
00000100: 82b3 c43f 5f80 eb3f 09e5 8c3f 44ef 32bf
00000110: 2f3b 863f 7f78 0640 9058 1d40 21b2 72bf
00000120: aaca 30c0 6d02 8cbf e9cc 8ac0 5f33 33c0
00000130: 2eb1 85bf 2be6 20c0 0f07 23c0 3d38 3fc0
00000140: 7a6f 0cc0 313b 97be 22a2 983f 6a87 30bf
00000150: 22e8 41be 00f3 48be da8b ae3d 3676 13bc
00000160: 78a2 0cc0 4ae3 68c0 df84 64c0 5b86 eabf
00000170: 1c75 a7bf 53e3 32c0 1c78 19c0 e687 39c0
00000180: acdd 8bc0 d806 81c0 7a01 81c0 a22f aec0
00000190: 0bb2 c6c0 86f5 d4c0 4a3a 0dc1 1cdb 22c1
000001a0: 9c1a 12c1 4b9c 12c1 01f6 19c1 93bf 1dc1
000001b0: a949 14c1 d007 16c1 1e17 31c1 143b 49c1
000001c0: 8a72 49c1 32cf 41c1 cc4e 34c1 a2b5 30c1
000001d0: 3ae3 3ac1 99ed 46c1 0d0f 46c1 1778 67c1
000001e0: 7720 7540 e409 5e40 38ca 7b40 3f6d 2e40
000001f0: a202 0540 c53f f03f 379a e13e 5688 443f
00000200: 3333 d83f 22a3 be3e 6774 423f 91c2 e83e
00000210: e6ec dcbf 7a93 4dbf 5b98 80c0 390c 4ac0
00000220: d13a 11c0 3c54 7ec0 fef5 4dc0 55f6 47c0
00000230: 7b75 e4bf b9cd 8cbf 6607 463e 712c c0bf
00000240: 176f 33bf 076f da3e ba61 66be 8da3 03c0
00000250: 34f8 4bc0 ec6b 65c0 3e96 5dc0 8284 13c0
00000260: 0122 29c0 24cd 46c0 f12b 1ec0 0296 55c0
00000270: df55 90c0 35dd 8dc0 fc90 96c0 daab 94c0
00000280: 03f1 bdc0 cd50 d6c0 7813 08c1 93fc 1dc1
00000290: cada 12c1 3074 15c1 fd11 1bc1 8dca 1dc1
000002a0: f2e6 16c1 9ce5 1bc1 3801 2fc1 7aac 3fc1
000002b0: 723d 46c1 4fd2 42c1 a832 3cc1 b733 3ac1
000002c0: b22f 44c1 5462 44c1 acba 2ec1 c72f 50c1
000002d0: 6db4 c540 7eb6 9340 8ea4 5b40 6c8d 813f
000002e0: f088 a23f 772e 2440 ede5 e23f b252 d1bf
000002f0: 9f52 a8be 3b17 bbbe fd03 44bf 73c7 a4bf
00000300: 3472 f6bf e04b 9ebf bd06 98c0 af18 35c0
00000310: b97f c4bf 3a2b 7bc0 e175 0ac0 7278 46c0
00000320: 277c 95c0 d05e 34c0 0cd1 33c0 8da1 31c0
00000330: fea0 6dbf 5d36 65bf 2d52 d6bf 63ec 86c0
00000340: 65e5 9ac0 6ba3 92c0 6477 97c0 e2fa 35c0
00000350: 2d84 36c0 1b5c 77c0 bb6e 6fc0 478c 60c0
00000360: 9055 86c0 e187 91c0 91cb 99c0 5a5e aac0
00000370: 17e4 a7c0 0eb8 dac0 7d6e 0dc1 43a2 1ec1
00000380: db70 1fc1 c698 1ec1 93f9 25c1 53ec 28c1
00000390: 10d7 15c1 ae34 1dc1 d102 3bc1 e763 4ac1
000003a0: 5382 49c1 88de 4dc1 39da 48c1 48a9 44c1
000003b0: 723d 49c1 616c 50c1 77d5 1fc1 90c4 4cc1
000003c0: 5546 e840 e2f2 9b40 ffcc f73f bd07 5f3f
000003d0: 1c58 3a40 b29d 3540 4f4b b2be a0e8 24bf
000003e0: 6b23 1dc0 e06c 033f bd58 bfbc 3c7a 26c0
000003f0: 258c 34c0 df38 4ebf dc3d 8bc0 e9c9 0dc0
2.8331068 1.6772082 4.222566 2.0249755 2.1945915 2.3899665 0.20759512 -0.33709425
-3.696519 -0.041611634 1.1121591 -0.7592644 -1.1618195 0.29094678 -2.7043228 -3.5685236
-1.7059095 -2.3114302 -3.115697 -3.617729 -2.6423972 -1.0380608 0.7141047 0.8797477
1.2240213 -0.067986876 0.7726793 -0.5402949 -1.1347268 -3.2144558 -3.2125223 -2.2679005
-0.67433923 -2.4956968 -3.2448773 -4.4420843 -5.8296533 -4.2357254 -5.5279555 -5.792696
-5.629861 -7.1663785 -8.091381 -8.760495 -8.867282 -8.690117 -9.320654 -9.739525
-8.3421955 -9.935413 -10.592058 -11.372561 -11.257944 -11.140724 -10.8852 -10.593637
-11.222188 -10.822245 -11.282447 -12.507141 2.1723156 4.69207 3.8189754 1.7569969
1.5367281 1.8398551 1.1007396 -0.6989634 1.0486811 2.1011045 2.4585304 -0.94803053
-2.7623696 -1.093824 -4.3375134 -2.8000104 -1.0444696 -2.5140483 -2.5473058 -2.9878075
-2.194304 -0.29537347 1.1924479 -0.68956625 -0.18936208 -0.19623947 0.08522768 -0.009000352
-2.1974163 -3.6388726 -3.5706098 -1.8322252 -1.3082614 -2.7951248 -2.397956 -2.8989196
-4.3708096 -4.0320854 -4.0314302 -5.4433146 -6.2092338 -6.654971 -8.826731 -10.1784935
-9.131496 -9.163157 -9.62256 -9.859271 -9.267983 -9.376907 -11.068144 -12.576923
-12.590464 -12.113085 -11.2692375 -11.044344 -11.680475 -12.433007 -12.3786745 -14.466819
3.8301065 3.4693537 3.9342175 2.7254179 2.0782857 1.8769461 0.4406297 0.7677053
1.6890625 0.37233835 0.75958866 0.45460942 -1.7259796 -0.80303156 -4.018598 -3.156996
-2.2692149 -3.9738913 -3.2181392 -3.12441 -1.7848352 -1.1000282 0.1933876 -1.5013562
-0.70091385 0.42662832 -0.22498217 -2.0568573 -3.187024 -3.584712 -3.462295 -2.3049626
-2.6427004 -3.1062708 -2.471432 -3.3372808 -4.5104823 -4.433253 -4.7051983 -4.645978
-5.9356704 -6.6973634 -8.504753 -9.874164 -9.178415 -9.340866 -9.691892 -9.861951
-9.431383 -9.743557 -10.937798 -11.979609 -12.390001 -12.176345 -11.762367 -11.637626
-12.261644 -12.274006 -10.920574 -13.011664 6.1782746 4.616027 3.4319186 1.0121284
1.269804 2.565336 1.7726418 -1.6353362 -0.32875535 -0.3654116 -0.76568586 -1.2873367
-1.9253602 -1.2366905 -4.7508225 -2.8296316 -1.5351478 -3.9245133 -2.1634448 -3.1011014
-4.6714053 -2.818287 -2.8096342 -2.7754853 -0.9282378 -0.89536077 -1.6743828 -4.216356
-4.8405023 -4.5824485 -4.733324 -2.8434377 -2.8518174 -3.8649967 -3.7411335 -3.5085618
-4.1979446 -4.547837 -4.8060994 -5.3240175 -5.246593 -6.8349676 -8.839475 -9.914615
-9.965053 -9.912298 -10.373431 -10.557696 -9.3650055 -9.825361 -11.688188 -12.64939
-12.594317 -12.866829 -12.553277 -12.291328 -12.577501 -13.02646 -9.989615 -12.797989
7.2585855 4.873399 1.9359435 0.8712118 2.9116278 2.83775 -0.3482308 -0.6441746
-2.4552867 0.51338005 -0.023357743 -2.6012106 -2.8210537 -0.8055553 -4.351301 -2.2154486
