ADL_DCASE_DATA/development/audio/b091_0_30.npy (npy, 360368 bytes, 1 tensors)

array (column-major) f4 [60, 1501]
0	0x3fc2b085	1.521012
1	0x3d13d440	0.03609109
2	0x3e7944fd	0.24342723
3	0xbd3de08a	-0.046356715
4	0x3fc27783	1.5192722
5	0x3f015033	0.50513
6	0x3f1818f7	0.59413093
7	0xbf857b6c	-1.042829
8	0x3b1165c0	0.0022185892
9	0xbe303601	-0.17208101
10	0x3fba9b88	1.4578714
11	0x3fa9d6b2	1.3268645
12	0x3f0b6941	0.5445748
13	0x3f96c46d	1.1778694
14	0x401ef8e0	2.4839401
15	0x40069f53	2.1034744
16	0x404f415d	3.2383645
17	0x4084708d	4.138739
18	0x407e5f5c	3.9745703
19	0x40761848	3.845232
20	0x4002db02	2.0446172
21	0x40147cec	2.3201246
22	0x3ff5c666	1.9201171
23	0x3f2b3c25	0.6688865
24	0x3fbb4b02	1.4632266
25	0x407d47fd	3.9575188
26	0x3fd479ae	1.6599634
27	0xbe05d88e	-0.1307089
28	0x3f08b65e	0.5340327
29	0xbeb05895	-0.34442583
30	0x3bbe8aa1	0.0058148657
31	0x3efa1da9	0.48850754
32	0xbf58a9d3	-0.8463413
33	0xbe599321	-0.21247531
34	0xc0142438	-2.3147106
35	0x3ecaabfe	0.39584345
36	0xbdbb3a14	-0.09141937
37	0x3dc2f4d4	0.095193535
38	0x3facb3f6	1.349242
39	0xbed4087f	-0.41412732
40	0xbf7d1247	-0.98856014
41	0xbfaa5e58	-1.3310041
42	0xc03f0fb3	-2.9853332
43	0xc055b4ef	-3.3391683
44	0xc0725b5a	-3.7868257
45	0xc060886e	-3.508327
46	0xc0647c91	-3.570103
47	0xc0806b3c	-4.01309
48	0xc09c795a	-4.8898134
49	0xc0f0febf	-7.531097
50	0xc0f02328	-7.5042915
51	0xc1002806	-8.009771
52	0xc100f190	-8.058975
53	0xc1080c25	-8.502965
54	0xc102da40	-8.178284
55	0xc1159efe	-9.351316
56	0xc1109595	-9.036519
57	0xc10bc709	-8.736093
58	0xc12a6fdf	-10.652312
59	0xc133d7a5	-11.240148
60	0x4073b0bb	3.8076618
61	0x40585558	3.380209
62	0x407eec73	3.9831817
63	0x403b3974	2.9253817
64	0x3f44d71d	0.76890737
65	0x402c9a1a	2.6969056
66	0x3f39c726	0.725695
67	0x3cd9d9ef	0.026593177
68	0xbf0c8815	-0.54895145
69	0xbf65f5d8	-0.8982825
70	0x3fff3503	1.9938053
71	0x3fd902ac	1.695394
72	0xbef7c850	-0.48395014
73	0x3fa8f1ac	1.3198752
74	0x401c8e05	2.4461682
75	0x401103db	2.2658603
76	0x403b4869	2.9262946
77	0x40581835	3.3764775
78	0x400939e4	2.1441584
79	0x402cf31f	2.702339
80	0x3fcf4b9c	1.6194949
81	0x40038f97	2.055639
82	0x3f6635a5	0.89925605
83	0x3f8fd0e7	1.1235627
84	0x4004b935	2.0738041
85	0x3fa15026	1.2602584
86	0x3f9835bf	1.1891402
87	0x402dc167	2.7149293
88	0xbc1507a0	-0.009096056
89	0xbf2ab1fc	-0.6667783
90	0xbf121a3a	-0.5707127
91	0xbe5954de	-0.2122378
92	0x3ed6a027	0.41919062
93	0x3dc0299d	0.09382937
94	0x3debf1ec	0.11520752
95	0x3d1169ba	0.03550122
96	0x3f6ef4f9	0.9334255
97	0x3fdc0c50	1.7191257
98	0x3f7a5568	0.9778657
99	0xbd06025b	-0.03271709
100	0x3e6a7826	0.22897395
101	0xbf7c999c	-0.9867189
102	0xc02aec35	-2.670667
103	0xc074895b	-3.8208835
104	0xc08c2555	-4.379557
105	0xc075fcf3	-3.8435638
106	0xc07c3d15	-3.9412282
107	0xc0798ece	-3.899341
108	0xc0ae4b90	-5.446724
109	0xc0d66998	-6.70039
110	0xc0f43cb3	-7.6324096
111	0xc1093359	-8.575036
112	0xc1107a94	-9.029926
113	0xc114dbe7	-9.303687
114	0xc109b8af	-8.607589
115	0xc10c5fa4	-8.77335
116	0xc11af5bc	-9.684994
117	0xc12720cf	-10.44551
118	0xc1366acc	-11.401073
119	0xc14a433d	-12.641416
120	0x40b9d3e1	5.807114
121	0x409f5d6a	4.980153
122	0x404dbcb1	3.2146418
123	0x40489603	3.134156
124	0x4006e1d6	2.107534
125	0x3f8fcee2	1.1235011
126	0x3f559f16	0.8344587
127	0x3e04dcd7	0.12974869
128	0x3f0d76d2	0.5525943
129	0x3f38dc43	0.7221109
130	0xbe2e6465	-0.17030485
131	0xbf193391	-0.5984431
132	0xbf17701c	-0.5915544
133	0x3ebc35d9	0.36759833
134	0x3fa39111	1.2778646
135	0x3f847266	1.0347412
136	0x402c9ca6	2.697061
137	0x403a5dff	2.911987
138	0x40422150	3.0332832
139	0x4010ba33	2.2613647
140	0x404446d6	3.0668235
141	0x401c30f7	2.4404886
142	0x3ff0d1a8	1.8813982
143	0x40239cd2	2.5564466
144	0x400397b0	2.0561333
145	0x3fbc0301	1.4688417
146	0x4009c255	2.152486
147	0x3f9c138b	1.2193464
148	0x3ed6327e	0.41835397
149	0x3ea7c164	0.32764733
150	0xbe2f7cc6	-0.17137441
151	0x3eda2cab	0.42612204
152	0xbf1381f9	-0.576202
153	0xbe623bf5	-0.22093184
154	0x3ea25d10	0.31711626
155	0x3e82801f	0.25488374
156	0x3fe032a2	1.7515452
157	0x3fde9a56	1.739085
158	0x3fcda5e6	1.6066253
159	0x3ee0a6bb	0.43877205
160	0x3e86cb5f	0.26327035
161	0xbf04e6dd	-0.5191477
162	0xbff4f607	-1.9137582
163	0xc0671cbe	-3.6111293
164	0xc070e55c	-3.763999
165	0xc05ec2f0	-3.480648
166	0xc082310b	-4.0684867
167	0xc08395d7	-4.112041
168	0xc0b54bee	-5.6655188
169	0xc0d06626	-6.5124693
170	0xc0f29a92	-7.5813684
171	0xc10cd43a	-8.801813
172	0xc114a9e6	-9.291479
173	0xc11387be	-9.22064
174	0xc10a64b8	-8.64959
175	0xc10470ea	-8.277567
176	0xc111fb4f	-9.123855
177	0xc1238073	-10.21886
178	0xc130332f	-11.012496
179	0xc13fb721	-11.982209
180	0x4042b7f8	3.0424786
181	0x401fde9f	2.4979627
182	0x402e974e	2.727985
183	0x402788ab	2.6177166
184	0x40367120	2.8506546
185	0x3f391fa6	0.72313917
186	0x3d5b0cf6	0.053479157
187	0x3e5f0722	0.21780065
188	0x3f5c85a7	0.8614144
189	0x3f8695cf	1.0514468
190	0xbf7fa7ad	-0.9986523
191	0x3f23642f	0.63824743
192	0x3f7e0a8f	0.9923486
193	0x3e68888d	0.2270834
194	0x3fa1fdad	1.2655541
195	0x3fa38139	1.2773811
196	0x404d8826	3.2114348
197	0x402e7a2c	2.7262068
198	0x4022b089	2.5420249
199	0x400ce8f8	2.2017193
200	0x3f5a1d76	0.85201204
201	0x40075179	2.1143477
202	0x3ff6569f	1.9245185
203	0x3ff72b8e	1.9310167
204	0x3fcae4bb	1.5851053
205	0x400071d5	2.0069478
206	0x401aa400	2.4162598
207	0x3ddbea17	0.107380085
208	0x3f8f8b53	1.1214393
209	0x3e881d25	0.26584736
210	0x3f1197e9	0.5687242
211	0x3f6348a8	0.8878274
212	0xbe3a8abc	-0.18216985
213	0xbf230681	-0.636818
214	0x3f1c27d4	0.6099827
215	0x3e979faf	0.29614016
216	0x3fa802f1	1.3125898
217	0x3f767c8b	0.9628379
218	0x3ecbbb8b	0.3979152
219	0x3e7e522c	0.24836034
220	0xbf02cec1	-0.5109673
221	0xbf73974d	-0.9515274
222	0xc036e03f	-2.857437
223	0xc08d78a3	-4.420976
224	0xc082d412	-4.0883875
225	0xc0817639	-4.0456815
226	0xc09c3ee4	-4.882677
227	0xc0a3783a	-5.108426
228	0xc0c4a3f0	-6.145012
229	0xc0dc6acc	-6.8880367
230	0xc0f53b61	-7.6634984
231	0xc10213de	-8.12985
232	0xc106d1ea	-8.426249
233	0xc10868f9	-8.525628
234	0xc10be8bb	-8.744319
235	0xc10a9154	-8.6604805
236	0xc110b3e0	-9.043915
237	0xc1274af1	-10.455796
238	0xc1418bf1	-12.096665
239	0xc15212a8	-13.129555
240	0x40aaf5be	5.342498
241	0x40768f85	3.8525097
242	0x409477e6	4.639636
243	0x40460dc9	3.0945914
244	0x3f6ae67f	0.9175796
245	0x3fc7a37b	1.5596765
246	0x3f724815	0.9464124
247	0x3fa553f1	1.2916242
248	0x3eee9818	0.46600413
249	0x3f9a28ad	1.2043663
250	0x3f0d5ac4	0.5521662
251	0xbf3941a2	-0.7236577
252	0x3fa6b0d1	1.302271
253	0x3f7674a9	0.9627176
254	0x3fecea70	1.8509045
255	0x40067554	2.1009111
